Workshop/Ex3_TrainNetwork/TrainedFCNet.onnx (onnx, 9267 bytes, 29 tensors)

fc_MatMul_W f4 [3, 32]
00000000: 1488 1fbf f283 b33e 6bed edbe e2a1 01bf
00000010: 0632 d93e c4b1 bc3e 8d1a a9be 49d4 84bf
00000020: bcd6 d1bc 7f1d a3be 2048 7bbe 7470 7b3e
00000030: fe85 ebbd e49c 953e ddcc f83f 086c df3e
00000040: 6810 7cbf b5b6 5b3f 524b 12bf d489 773f
00000050: d052 8a3f cec2 1b3f c146 3bbf b9e6 083f
00000060: 0bc6 a93f 915a 4d3f be9f 39bf 99f8 84bf
00000070: 54a1 84bf eff7 8cbf b943 bd3d 8f48 193e
00000080: 690d 19bf e530 82bd 2cef d93e 05ac 0b3e
00000090: 0235 77bf bc0e 30bf f5d8 083e 3dbc 8dbe
000000a0: 2d1c a6bd db23 ec3d 848e 193e a680 aabe
000000b0: 8ca5 163f 955f a3bf f1c0 d33f b4c8 4dbf
000000c0: 77b3 88be 799f b8be eba7 5e3f 6b63 49bf
000000d0: 8b7e 02bf ddf6 3c3f 2c4a 613f 0e4f 073d
000000e0: 90b1 dbbe 34e9 7abf 5fee 063e e697 9d3e
000000f0: b52f b83e 7799 623e 2f4e 413f d85c 09bd
00000100: 6e03 9b3e 73a0 09bf 08a5 c4be a167 a53f
00000110: 62ca a43e 6feb 1f3f bda7 54be 3ea5 22be
00000120: a336 9f3c 9702 ba3e eba7 f8be 4c3d 643d
00000130: c2ee 9cbf 4f3e e93f 26f2 f23e 2b98 6ebf
00000140: 3c82 7abf e371 b7be 9f7e 86be da73 56bf
00000150: 919c cfbf 32f4 d03e e168 f33a 392f e8bd
00000160: 2410 393f dc24 6fbf 9d40 873f f418 94bf
00000170: f67f d8bd bb62 cd3e a645 2abe e906 893f
-0.62317014 0.35061604 -0.46470198 -0.5063764 0.42420977 0.36854374 -0.3302807 -1.0377284
-0.025615089 -0.3185844 -0.24539232 0.24554616 -0.11500166 0.2922126 1.9437519 0.4363711
-0.98462534 0.85825664 -0.5714618 0.96694684 1.0806522 0.60844123 -0.73154837 0.53477055
1.3263563 0.8021632 -0.7250937 -1.0388366 -1.0361733 -1.1013163 0.09241433 0.14969085
-0.5978609 -0.06356982 0.42565286 0.13639839 -0.9656526 -0.6877248 0.13364013 -0.27682677
-0.08110843 0.115302764 0.14995772 -0.33301276 0.58846354 -1.2763544 1.6543256 -0.80384374
-0.2669942 -0.36059168 0.8697497 -0.78667325 -0.5097434 0.73814183 0.880038 0.033034377
-0.42908907 -0.9801209 0.13176869 0.30779952 0.35973898 0.22128855 0.75509924 -0.03353581
0.30276054 -0.5376045 -0.3840716 1.292225 0.32185656 0.6246862 -0.20767112 -0.15883347
0.019435233 0.363301 -0.4856561 0.05572252 -1.2260363 1.822214 0.4745037 -0.9320094
-0.9785497 -0.35829076 -0.2626848 -0.83770525 -1.6219655 0.40811306 0.0018570685 -0.11337132
0.72290254 -0.9341562 1.0566593 -1.1570115 -0.105712816 0.40114388 -0.16628131 1.0705234

fc_Add_B f4 [32]
00000000: 2883 e83e 1f4c ad3e 6909 cb3d d519 cb3e
00000010: d3a8 a23e 07a5 fe3e 47ab 083f 540c 103e
00000020: 3807 1cbe 4300 923e 182b 99be cd22 983d
00000030: 470c cdbe 8a7a 803e 3a66 82be 8083 94be
00000040: 9943 0c3f c1d4 53be 7a87 c53c c197 263b
00000050: 7203 afbe 60c8 17bd 777f 14be a4d7 00bf
00000060: 2457 27bd c2b4 f7be 7412 2d3e 43cb 30bd
00000070: 1978 cdbc 1f85 fd3e 1966 45be 3cf5 3f3e
0.45412564 0.33847138 0.09913904 0.39668146 0.31769428 0.4973528 0.5338635 0.14067203
-0.15237129 0.28515825 -0.2991569 0.07428513 -0.4004843 0.2509349 -0.25468618 -0.29006577
0.54790646 -0.20686628 0.024112452 0.0025420042 -0.34182316 -0.037056327 -0.14501749 -0.5032904
-0.04085459 -0.48380095 0.1690157 -0.043162595 -0.025081681 0.49515626 -0.19277228 0.18745893

fc_4_MatMul_W f4 [32, 16]
00000000: 9021 b33e ba21 783d 0e7b 92be 6bf1 15bf
00000010: eff8 4abe 86a4 463d 1d91 803d 4b4b d03e
00000020: 45a8 123e 819d d6bb d0d4 d3be 024a c8bd
00000030: 7c44 48be 93a6 3bbd 1175 6e3b d110 153e
00000040: 0bc3 ac3e 9e82 e03e 6cf6 b2be 87f7 ecbe
00000050: 3246 2abe 64dc 753e 3ff1 29be 25e5 89be
00000060: 557d 1fbe 3599 e8bd 723b c7be 3ea4 c43c
00000070: d52c 993e 0f45 803e 4e63 72be df2c 8abc
00000080: 45ad d53d 5e94 153f 1630 ebbe 004e 9bbe
00000090: ab81 45bf 8bf7 dd3c fc84 eabd 1efb 103e
000000a0: ef57 8cbc 0bf6 eb3e 9e4c f9be b104 0bbe
000000b0: 727c 64be fc21 003f 44e4 b5bd ee80 603e
000000c0: ffb6 41be 5990 9e3e fe5b c4be 955c 193e
000000d0: fe7b 01be d2c1 f23e ec29 cebe 30fa eb3e
000000e0: 7392 65be 8b98 973e 16af 033e 6ee9 773e
000000f0: 00bc 073f c4a6 283e 3501 88be 86f5 013f
00000100: 2b94 8bbe 6334 233c 0030 08be 17d9 05be
00000110: 8b7b 24bf 998b 143f 047e d4bd d737 953e
00000120: fbb9 22bd f8c0 ccbd 7f6a eebe e5c5 603e
00000130: a71f 193c c25f a8bd 6367 803e 463a 113f
00000140: bd30 a2bc caea ad3d 51c7 13be 635a 8dbd
00000150: 6c81 8abe dee3 493e bb23 65bd 9a14 283d
00000160: 09aa e8bc 95d9 17be ba7c c0be 4d3b eebd
00000170: ce36 cc3e c666 df3d b874 0d3e f64c 6ebd
00000180: 0292 3c3d fdb4 033f 55d3 333d 9d7e 483d
00000190: 1062 05be e4f4 833e 726f 63bd 1cb9 5a3e
000001a0: fbaa 83be 64ff b43e 9f33 053e a81e bfbd
000001b0: e093 ed3e eb43 3d3e a91d 883e b34b 263f
000001c0: 0e2b 1c3f 7a01 313f 1fe9 3ebe 5eff a3bd
000001d0: 112a dcbe 648b a43e 9f03 10bd 7f8c ed3d
000001e0: ee0c 213e 7b76 293e 0084 06bf ac1f 57be
000001f0: f47a b63b c607 82be 1025 283d ce92 843d
00000200: c2e6 2c3e 5961 55be 4f53 82be b49e 003f
00000210: 7c46 cbbc 0501 be3e c83f 9ebd 979f 3ebe
00000220: afa8 fbbe a61e 563e d9bb 75be 6ab3 5c3d
00000230: 7b88 6abe 2637 74be 204a 863e a251 5bbf
00000240: db68 7d3e 06d3 d73e bc1a 39be 16e5 363d
00000250: 5b77 debd d44d bf3e 794c d53d 9071 23bd
00000260: 1b6d 9ebe 87bd ed3d 97f4 03be c298 a93e
00000270: c64a be3e 8951 ca3d e1b2 20bd c368 313f
00000280: a92d 8cbd e1c9 fdbc 7aad 5dbc eaa0 23be
00000290: 9368 063f 3d00 1dbf ae4c 853e d630 b23d
000002a0: 556a 11be 5610 783d c09c 273e 41c6 e6be
000002b0: ddd4 8cbe ddfa cbbe a9a8 6dbe c42d a6be
000002c0: 3c93 093e c126 e53e a784 96bd 8d78 96bd
000002d0: da65 8fbe c0c2 50bd db16 b9be 64a1 0e3e
000002e0: 1021 653e e47f e63d c605 4cbe 57dc abbd
000002f0: 7bf5 983e 6d83 9f3e 328a dbbe 093b ab3e
00000300: 6f96 693e 9b4b ffbd b376 d33e d3f3 843e
00000310: a674 5f3e 81bd c8be a8c7 493d 751f 11be
00000320: c17c 463e 7ab4 bcbd 3307 9b3e 6571 87bd
00000330: 2507 f5bc 3993 7dbe d936 cdbd 6423 e7bd
00000340: 5590 4bbe 9014 ba3e 9621 04be 94dd 32be
00000350: ebea d5bd 3cdc 833e 2612 c43d d2f7 243e
00000360: 0d73 82be c316 01be 4725 82bd b5d1 babe
00000370: 465e da3e 4611 b0be cd21 f63b 17c6 25bd
00000380: 05a7 82bd 39e2 aa3e 85a6 b1be afef a4bd
00000390: 6629 633d b7f5 e9be bf77 1f3e 77e1 793e
000003a0: 48df 9c3d 8442 bcbd 77db a5be 774c 8bbb
000003b0: beb6 d53c 582c 983e 129b f7bc b3c1 56be
000003c0: 3a6d b2bd 461b cebc b9c3 a13e 0b3b 233f
000003d0: 0324 373e 6454 58be 8fb8 113f 7bcd 56bd
000003e0: 4ebc 9ebd e9e9 3abe 8fea f63e 010a 8abe
000003f0: 03de 49bd 0527 1bbf 2d6d 253e 21b6 02bf
0.34986544 0.06057904 -0.28609508 -0.585715 -0.19821523 0.048496746 0.06277678 0.40682444
0.14322002 -0.0065495376 -0.413733 -0.09779741 -0.19557375 -0.045813154 0.0036385695 0.14557196
0.33742556 0.43849653 -0.3495363 -0.46282598 -0.1662834 0.24009854 -0.16595934 -0.26932636
-0.15575154 -0.11357347 -0.3891254 0.024004098 0.29917017 0.25052688 -0.23670694 -0.0168671
0.10433439 0.58429515 -0.45935124 -0.30332947 -0.7715098 0.027095577 -0.11451146 0.14158294
-0.017131774 0.46086153 -0.48691267 -0.13576008 -0.22313097 0.50051856 -0.08881429 0.21924183
-0.18917464 0.30969504 -0.38351434 0.14976723 -0.12644956 0.47413498 -0.4026636 0.46089315
-0.22419147 0.2960857 0.12859759 0.2421014 0.5302124 0.16469866 -0.2656342 0.50765264
-0.2726148 0.00996122 -0.1329956 -0.13071094 -0.6425101 0.5802551 -0.10375598 0.29144165
-0.039728146 -0.09997743 -0.46565625 0.21950491 0.009345925 -0.08221389 0.25078878 0.56729543
-0.01979863 0.08492048 -0.14431502 -0.069020055 -0.27051866 0.1971583 -0.05594228 0.041035272
-0.028401392 -0.14829095 -0.3759516 -0.116324045 0.39885563 0.10908274 0.13814056 -0.058178864
0.04603768 0.5144804 0.043902714 0.048948873 -0.13025689 0.25772774 -0.055526204 0.21359676
-0.25716385 0.35351098 0.13007973 -0.09332019 0.46401882 0.1848294 0.2658513 0.6495926
0.61003196 0.6914288 -0.18643616 -0.08007692 -0.43000844 0.32137597 -0.035159703 0.11599063
0.15727589 0.16549103 -0.52545166 -0.21008176 0.0055688564 -0.25396556 0.04105097 0.06473313
0.16884902 -0.20837916 -0.25454184 0.5024216 -0.024813883 0.37110153 -0.07727009 -0.18615566
-0.49152133 0.20910129 -0.2399744 0.05388204 -0.22903626 -0.23849162 0.26228428 -0.85671437
0.2474703 0.42153186 -0.18076605 0.044652067 -0.10862609 0.37364066 0.104149766 -0.039903224
-0.30942616 0.11608415 -0.12886272 0.33124357 0.37166423 0.09878833 -0.039233092 0.6930048
-0.068446465 -0.030980052 -0.01353013 -0.15979353 0.5250332 -0.6132849 0.26035064 0.08700721
-0.14200719 0.060562454 0.16368389 -0.4507313 -0.27506152 -0.3983983 -0.2320887 -0.3245679
0.13435072 0.4475613 -0.0734952 -0.07347212 -0.28007394 -0.050966978 -0.3615025 0.13928753
0.22375894 0.11254862 -0.19924077 -0.08391636 0.29874787 0.31154957 -0.42878872 0.33443478
0.22811292 -0.124655925 0.41301498 0.25967273 0.21821842 -0.3920708 0.049262673 -0.14172156
0.19383527 -0.09214111 0.3027893 -0.06613425 -0.029910633 -0.24763192 -0.10020227 -0.11286047
-0.19879277 0.36343813 -0.12903437 -0.17467338 -0.10445198 0.25753963 0.09573774 0.16110161
-0.25478402 -0.12606339 -0.06354766 -0.3648812 0.4265005 -0.3438818 0.0075113536 -0.040472116
-0.06379513 0.3337572 -0.34697357 -0.080535285 0.055459403 -0.45695278 0.15573023 0.24402414
0.07659775 -0.09192374 -0.32394 -0.0042510587 0.026088115 0.29721332 -0.03022531 -0.20972328
-0.087122396 -0.02515949 0.31594637 0.6376197 0.17884831 -0.21125942 0.5692224 -0.052442055
-0.0775076 -0.18253292 0.4822583 -0.26960757 -0.049283992 -0.60606414 0.16154929 -0.51059157

fc_4_Add_B f4 [16]
00000000: dbf4 4fbe 4f2c f1bd e7a9 513d e09e b93d
00000010: 7be1 b63e 68d6 d0be 5825 10bc 8775 bcbd
00000020: b62d 313e 2093 d6bd 9e91 1a3e ae1a 88bc
00000030: c018 90be 768d d9bd 1bac 8c39 92ea 8dbd
-0.20308249 -0.11776029 0.051187422 0.09063506 0.35718903 -0.4078858 -0.008797966 -0.09202104
0.17302594 -0.104772806 0.15094611 -0.016614284 -0.28143883 -0.10622685 0.0002683111 -0.06929506

fc_6_MatMul_W f4 [16, 8]
00000000: 47c2 0a3e 13b8 4d3d 404d 423e eec0 113f
00000010: bff0 da3d 6977 023d 2193 aebe 1c15 6cbe
00000020: 0212 d23d f0e5 17bf 1626 443e 8cda 05bf
00000030: 4f82 a2be 1eb4 18be 484f a3be a7a8 83bd
00000040: 6659 c9be 653c d73e 13d9 a8be 4168 b8be
00000050: fae0 633f f97b bd3b 2307 ad3e e8fd bcbd
00000060: 480a 0bbf 3307 1abf 2cd2 b43e 63d7 9abd
00000070: f2bb 07bf ba9f 95bd 57cd ebbd ec53 653e
00000080: cedb 4c3c 070c aebe abba b9be 6f09 ddbe
00000090: 54f3 b33e 96ec fb3e a1f2 c13e 0c15 a1be
000000a0: 00b4 e9be 1560 9dbc ae16 cabe 8329 23bd
000000b0: 17ff ba3e 8cc7 14be 7c37 c1be b5fe 213f
000000c0: 6599 28be b040 083f b85b 09bd 4d32 4e3e
000000d0: ebb6 ffbe c583 993e 0814 d3be 95e5 053e
000000e0: 6bc0 bbbe acff 1ebd a02e babc 07b5 5c3f
000000f0: 28b0 3fbe a96b d63e d748 b93e 5b40 3cbe
00000100: a4ea 1bbe 15d2 c5be 0b35 d5be fc9b 4c3c
00000110: c09c e73b 333a fc3e 80ca 803e b5d8 003f
00000120: d327 2abf ff19 a23e a5f5 f13c 8bfa d03d
00000130: af0f 2fbf 3ce3 9f3d 77cf 273f 373b d43e
00000140: e1cb ad3e 21cf 77be 8967 d13c 4aff 0cbf
00000150: f5aa abbe 91e5 f6bc d206 423d debf 743e
00000160: 57ec 1fbe 0329 f23d aab4 863e fd13 94bc
00000170: 0ea1 12be 85dc 1fbe 1b25 163f d6c4 7ebe
00000180: af1b 71be c140 18be fe8a 313f b589 83be
00000190: c016 ed3e c312 f7be cb11 72be 535e 80bc
000001a0: f422 d63e be9f 30be afea 66bd f99e a63b
000001b0: d3a0 363e 791a b93e e59d fbbe 9a14 8dbe
000001c0: 0470 20be 58ea 703d 7d5a b6bc a363 d53d
000001d0: 4868 cbbe 7e22 83bd 6e23 043f adba 9bbe
000001e0: 65e0 433f f86a 0cbd f3c7 a4be 9171 33be
000001f0: f484 4e3f f180 c1be cbb5 4bbf 2034 8f3d
0.13550673 0.050224375 0.18974781 0.5693501 0.1069045 0.03185216 -0.34096625 -0.23054928
0.10257341 -0.5933523 0.19155154 -0.522866 -0.31740043 -0.14912459 -0.31896424 -0.06428652
-0.39326018 0.42038265 -0.32978114 -0.3601704 0.8901516 0.005782601 0.33794507 -0.09228116
-0.5431256 -0.60167235 0.35316598 -0.07560613 -0.53021157 -0.07305856 -0.11513775 0.22395295
0.012503577 -0.3399355 -0.3627523 -0.4317126 0.35146582 0.49203938 0.37880424 -0.3146137
-0.45645142 -0.019210855 -0.39470428 -0.03983451 0.36522743 -0.14529246 -0.37737644 0.6327928
-0.16464765 0.53223705 -0.033534735 0.20136376 -0.49944243 0.29983345 -0.4122622 0.1307586
-0.3667024 -0.038818046 -0.02272731 0.86213726 -0.18719542 0.41879013 0.36188385 -0.18383925
-0.15226227 -0.38636842 -0.4164203 0.012488361 0.0070682466 0.49263152 0.25154495 0.5033067
-0.66467017 0.31660458 0.029536078 0.10204037 -0.68383306 0.078070134 0.6555094 0.41451427
0.3394461 -0.24200107 0.025562065 -0.5507704 -0.33528867 -0.030138763 0.047369786 0.23901317
-0.156175 0.118242286 0.2630971 -0.018075937 -0.1431925 -0.15611465 0.5865037 -0.24879774
-0.23545717 -0.14868452 0.6935271 -0.25691 0.4630642 -0.48256502 -0.236396 -0.015669977
0.41823542 -0.17248437 -0.056376155 0.005084869 0.17834787 0.3615301 -0.491439 -0.2755478
-0.1566773 0.058817238 -0.022259945 0.10419395 -0.39727998 -0.06403063 0.5161656 -0.3041586
0.76514274 -0.0342817 -0.321838 -0.17523791 0.8067162 -0.37793687 -0.7957427 0.06992364

fc_6_Add_B f4 [8]
00000000: ebad 833e b12f 4dbe 9aef 503e 0bb1 9a3d
00000010: 90d4 91bd 51dc 88bd 7fcf 563e 98d9 0abe
0.25718626 -0.20037724 0.204039 0.075532995 -0.07120621 -0.06682647 0.20977591 -0.13559568

fc_1_MatMul_W f4 [3, 8]
00000000: 9928 5fbf 38f6 f8be 2759 893f 3c9c d33d
00000010: c559 6e3e 85c7 98bf 2a91 803d 0853 a73f
00000020: d332 e1be 33d6 a2bf 1ff0 2bbf 0885 bebf
00000030: 3ff6 833e c883 b6bf 7a7d 7a3f 7afe 51bf
00000040: f655 00bd 7458 1fbf d898 9d3e 61f9 803e
00000050: 6e55 4f3f 6b6c 513f ca62 0e3f 3def 28c0
-0.8717132 -0.4862535 1.0730332 0.10332534 0.23276432 -1.1935889 0.06277688 1.3072214
-0.43984088 -1.2721618 -0.6716327 -1.4884348 0.25773808 -1.4258966 0.9784771 -0.82028925
-0.03133198 -0.62244344 0.30780673 0.2519026 0.8098973 0.8180606 0.5561949 -2.639602

fc_1_Add_B f4 [8]
00000000: 38fd 203e 469d c1bd dce4 383e 6663 32be
00000010: 6149 a83d fa19 babc b46e a23e 27fc 4cbd
0.15721595 -0.09453826 0.18056053 -0.1742073 0.08217121 -0.022717465 0.31725085 -0.05004516

fc_2_MatMul_W f4 [3, 24]
00000000: 579d 673f 8b12 903f 73b3 b6be 7ff7 83bf
00000010: 7175 1dbf bc29 3b3f a3c3 23be 96cf babe
00000020: cfb5 0dbe d193 94bf f83b bdbe 402c b33e
00000030: 6e0d 883f 1e55 893e 4c65 823e a60a 15bf
00000040: ea30 843e 0b3c a03f d279 4fbe 946b 4bbe
00000050: ce6b 59bf 080b bebe f2d0 f2be 9ad9 38bf
00000060: 6e28 c7bf 8946 10bf 05b0 22bf 224b 5c3f
00000070: b5ef 1f3e e2d0 a0be 7a22 283d df7d 9cbe
00000080: dabc a83f 4eaa 42bf 3a4a 3d3f d822 4ebe
00000090: 1de8 06bf 5bfb c9bf 5e2d f4be 2e4b 8abe
000000a0: 7ce5 cebe 32a2 57bf e00f 92bf 8d6a 023e
000000b0: bbc5 7d3f d342 85bf 5910 763f e3f3 953f
000000c0: 9eb9 d9be d45e 493f 4ebd 973e c31c 3bbd
000000d0: fdf2 b53f 0448 2ebe c010 583f 973a 91bf
000000e0: 0bda 383f 0517 5e3e b0ec 033e 38ad a6bf
000000f0: 1a46 80be cb3f db3f 4a20 183f 7195 8dbf
00000100: 634a 04be f1bc dcbe d35d 96bf e7b7 a63f
00000110: 95be 2ebe fca3 ab3e 4923 33be 4d94 88bf
0.90474457 1.1255659 -0.35683784 -1.0309905 -0.61507326 0.73110557 -0.15992598 -0.364865
-0.13838886 -1.160761 -0.36959815 0.34994698 1.0629098 0.26822752 0.25467908 -0.58219373
0.25818568 1.2518324 -0.20261315 -0.19865257 -0.8493012 -0.3711779 -0.47425038 -0.72207034
-1.5559213 -0.5635763 -0.63549834 0.86052144 0.15618785 -0.31409365 0.041048504 -0.30564782
1.3182633 -0.76041114 0.73941386 -0.2013048 -0.52697927 -1.5779833 -0.47690862 -0.27010483
-0.40409458 -0.84231865 -1.1411095 0.12735958 0.9912984 -1.0411018 0.96118695 1.1715053
-0.42524427 0.7866032 0.29636616 -0.045681726 1.4214779 -0.1701966 0.8440056 -1.1346005
0.7220771 0.21688469 0.12883258 -1.3021612 -0.25053483 1.7128843 0.5942427 -1.1061231
-0.12919001 -0.431129 -1.1747383 1.3024873 -0.17064889 0.33523548 -0.17493929 -1.0670258

fc_2_Add_B f4 [24]
00000000: ed2f 143e 6a24 93be dc27 9f3e c3e5 253e
00000010: 3b69 163e ca98 00be 398b 34bd da97 9e3d
00000020: 9945 c9be 4353 8e3e e6d0 d7bd 64e6 a03e
00000030: 2746 95be d3b1 0f3e 6ee3 2a3e 5fdd 533e
00000040: b26e 12be 16c5 aa3e b115 423b eef0 973e
00000050: 77b2 71be 5294 a93e b3e3 e03e a98b 9dbe
0.14471407 -0.2873872 0.31085098 0.16200928 0.1468858 -0.12558284 -0.044078086 0.07743807
-0.3931091 0.277979 -0.10537891 0.31425774 -0.29155084 0.14032678 0.1668832 0.20689915
-0.1430004 0.3335349 0.002961498 0.29676002 -0.23603235 0.33120972 0.4392372 -0.30770615

fc_5_MatMul_W f4 [24, 12]
00000000: 8983 803e 34f7 16be 5932 f93d 0233 61be
00000010: cc00 fabb 4860 7d3e 8e88 d23d 8592 403e
00000020: 3241 ce3e 20a3 4b3f b775 a6bb e47e 77be
00000030: a1af 17be b0b5 283d f9da 14bf 05ad 6cbe
00000040: 62f3 52be 89e6 473e d2ce bfbb 7702 0b3c
00000050: 4083 493e c9f4 c93d 5276 b33e 7933 633c
00000060: b912 22bf 6cb4 cdbe de34 bebe 2ea7 633e
00000070: 8634 213e 69c1 b03d c94e 1f3e a70d 0ebd
00000080: 6041 013f 391b c7be 1e74 543d 89ba b43e
00000090: 1429 bd3d 109c 3e3e 3991 55bd 73ef d0bd
000000a0: a130 25bd b91b 073e 6238 d13d dec9 8c3e
000000b0: bee8 e9be 9d94 af3e fbb5 3e3e 14da 093d
000000c0: 5a98 cd3e 0692 4fbe 2795 0b3f 0101 5f3e
000000d0: a893 a43e e5e6 d53d 0cac fbbd 30b1 78be
000000e0: 4928 033f f1c4 08bd 471a b8be 0ceb a93c
000000f0: 57b7 0b3f 3ca8 a43e 2424 2e3e c7c0 a43e
00000100: 0287 003d 7ac4 93be d56f c2be 347e 83be
00000110: 6d85 2a3e 97c8 8cbe 7b4d cf3e 08c6 b8be
00000120: 9abb 1dbf 737e ed3e aec7 a4be 0e77 edbe
00000130: 6cef 803d d949 7e3d a573 ce3e 2557 493e
00000140: c678 e53e 51ce 033f c06a 87bd d392 413e
00000150: 1927 303c e744 43bd 40b9 073f bbcc cfbe
00000160: 4caf ff3e 26d1 2d3d bdc4 2c3f a76f 143e
00000170: c981 cf3e df53 203f 973a 563e 9c22 813e
00000180: 0f27 223e 7a94 86be 5b91 55bb b103 c6be
00000190: 204b 233e 8776 b93d 0d2d 043f 019f d9be
000001a0: ec04 123e 7da7 c63e ddba f33d 0c38 1dbe
000001b0: f792 ae3e e860 293e 43ba 9f3e e52d bb3c
000001c0: 99e4 ca3e 1744 5f3d c4b4 df3e d3f3 21bd
000001d0: 84f6 8bbe 68f8 2b3f 3338 febe bd50 ad3e
000001e0: 2ebb c73e ee63 05be f851 a5be 94ec 2d3d
000001f0: 19f3 003e 1342 dc3c 69b6 b8be 2465 263e
00000200: ab87 e5be da46 a1bd d294 df3d f6e1 74be
00000210: c293 243e 1a04 f13d 1d34 923d 39e0 3abe
00000220: 8157 693c 042c 5abe 8f76 b73d c92a f5bc
00000230: 97c5 5abe 183e cb3e 1266 31be 77e4 373f
00000240: 8cf0 cf3e 39df 5bbe 78b4 2f3e 73d6 9dbd
00000250: 75bb aa3e 122f a93e 926d 893e 14d5 613e
00000260: a663 47be c8a8 bcbe 8eaf a43e a811 52be
00000270: efb7 113e 78d4 a1be 40d7 8abe a4ad 143e
00000280: 0960 a53e 4299 4ebe 7809 523e 8e3a f0be
00000290: 851d 59be ef53 a13e a558 73bf b9d2 7f3f
000002a0: 8cde b7bd c912 e6be e577 653e 3ece f43d
000002b0: 61fe 513e cceb 22be a54b 7f3e f213 89be
000002c0: 6b42 8fbd 8750 86be 8235 dcbe c7a5 283e
000002d0: 7816 42be 8c7b 14be d46c 833d ca53 793e
000002e0: 0371 8d3d 8abc 0e3f 79d5 ba3e 4174 7e3e
000002f0: cee2 33bd 7899 7cbe 95ea 15bd 3c3f 383e
00000300: 6815 813e 12bb 1fbf 21ec b0be 74b9 973e
00000310: 0c3d 9bbe d716 15be 42ec 0cbf 80d5 12be
00000320: 33d1 8abe 9a27 9cbe 313a ab3e 6744 46be
00000330: 096f 15bf 7ec1 21be f407 123f 8c6b 32be
00000340: ce13 433e f9cd cebe 0e27 0f3d 8e62 f9be
00000350: e551 3fbd 17e3 ea3e 5b99 c8be e8c7 e63e
00000360: 0695 06bf 40a0 cabe 3315 a63e 59a6 f93c
00000370: 19e5 dc3d 25c9 a63c 1c66 ca3d a3a9 87be
00000380: c882 253f 425d d6bd 19e5 03bf 7a81 ae3e
00000390: ee5a b6be de7f 30bd d445 653e 7bd7 0c3f
000003a0: 89de 073e 5cfc 4a3e 62a3 aebe 75b0 10be
000003b0: 1880 953d 9268 9f3e 585a 1f3e 327c 11be
000003c0: ed04 cf3e 744a 033e 40b7 b8be ed26 b0bd
000003d0: e7d4 93bd 7a48 143d da14 15be 13b5 7d3d
000003e0: edb1 e5be 1391 58be 9702 02bf f48e b1bd
000003f0: c382 78be a17a 3c3f fff6 513e f2b4 203c
0.25100353 -0.14742738 0.12167806 -0.21992114 -0.0076294895 0.2474376 0.10279952 0.18805893
0.40284115 0.79545784 -0.0050799507 -0.24169499 -0.14813091 0.041188896 -0.58146626 -0.23112877
-0.20600656 0.19521536 -0.0058535123 0.008484474 0.19678974 0.09861142 0.3505121 0.0138672525
-0.6330982 -0.40176713 -0.3714971 0.22231743 0.15742692 0.0863064 0.15557398 -0.03468099
0.5049038 -0.38887957 0.05186855 0.35298565 0.09236351 0.1861422 -0.05214045 -0.10201921
-0.04032958 0.13194169 0.10215832 0.27497762 -0.4568538 0.3429307 0.18624108 0.03365524
0.40155298 -0.20270547 0.54524463 0.21777727 0.32143903 0.1044443 -0.12288675 -0.24286342
0.51233345 -0.033390943 -0.35957548 0.020741962 0.5457663 0.32159603 0.17005974 0.32178327
0.031378753 -0.28860837 -0.37975946 -0.25682223 0.1665246 -0.27496788 0.404888 -0.36088586
-0.6161438 0.46385536 -0.32183594 -0.46379894 0.06295666 0.062082145 0.40322605 0.19662149
0.44818705 0.5148669 -0.06612158 0.18903665 0.010751509 -0.047673132 0.53017044 -0.40585884
0.49938428 0.042435788 0.674877 0.14495717 0.40528706 0.6262798 0.20920788 0.25221717
0.15835212 -0.26285154 -0.003258786 -0.3867469 0.15946627 0.090558104 0.5163124 -0.42504123
0.1425969 0.38799658 0.11900876 -0.15353411 0.340965 0.16540873 0.31196794 0.022849033
0.3962753 0.054508295 0.436926 -0.03953917 -0.27336514 0.6717591 -0.49652252 0.3385066
0.39009994 -0.13026401 -0.322891 0.042461947 0.12592734 0.026886975 -0.36076668 0.1624952
-0.4483007 -0.07874842 0.10917057 -0.23914322 0.1607199 0.117683604 0.07138846 -0.18249597
0.014242054 -0.21305853 0.0895816 -0.029927628 -0.21364437 0.3969581 -0.17324093 0.71832985
0.4061321 -0.21471871 0.17158687 -0.077069186 0.33346143 0.33043724 0.26841408 0.22053939
-0.19471607 -0.3684752 0.32165188 -0.20514548 0.14230321 -0.31607413 -0.27117348 0.14519364
0.32299832 -0.2017565 0.20511425 -0.46919674 -0.21202667 0.3150935 -0.95057136 0.9993091
-0.08977994 -0.44936207 0.22409017 0.119534 0.20507194 -0.15910262 0.249312 -0.2677303
-0.0699509 -0.26233312 -0.43009573 0.16469489 -0.18953884 -0.14500254 0.06417242 0.24348369
0.06906321 0.5575644 0.36490992 0.24849035 -0.04391747 -0.24667919 -0.036600668 0.17992872
0.25211644 -0.6239482 -0.34555152 0.29633677 -0.30320013 -0.14559494 -0.55048 -0.14339256
-0.2711273 -0.30498964 0.33442834 -0.19362031 -0.5837255 -0.15796468 0.57043386 -0.17423838
0.19050524 -0.4039152 0.034949355 -0.48708004 -0.04670896 0.4587638 -0.391795 0.4507439
-0.5257114 -0.39575386 0.3243805 0.030474829 0.107858844 0.020359585 0.09882757 -0.2649661
0.6465268 -0.10467006 -0.5152145 0.34083158 -0.3561625 -0.043090694 0.22389919 0.550163
0.13268484 0.1982283 -0.34109026 -0.14129813 0.072998226 0.31134468 0.15561807 -0.14207533
0.40433446 0.1282137 -0.3607731 -0.086011745 -0.07218342 0.03620193 -0.14558735 0.061940264
-0.4486231 -0.21149091 -0.507852 -0.08669844 -0.24268632 0.73624617 0.20504378 0.009808766

fc_5_Add_B f4 [12]
00000000: 24b6 e63d a908 60bc fda9 ccbd f52a 2abd
00000010: 193c eabd 9233 98bb c7aa e9bd 8744 2ebb
00000020: f07c 11be 94dc 17be 6152 4e3e f7ca 39be
0.11265209 -0.01367394 -0.0999336 -0.041544873 -0.11437244 -0.0046448195 -0.11409526 -0.0026591138
-0.14207816 -0.14830238 0.20148613 -0.18143831

fc_7_MatMul_W f4 [12, 6]
00000000: 4a44 363e fae6 9c3d 257b 8ebe dfc6 23bf
00000010: 7ad4 17bf c741 ce3b 199c a13e 2413 26bf
00000020: c97c 113e 8c69 c7bd 8597 cb3e 2131 2e3f
00000030: da2d 593b 7a5c 1b3f 3509 d6be a087 783e
00000040: adf3 eebe 5b8a 76bf 8c54 d8bd 8cca c6bd
00000050: 38e3 093f 0963 dc3e cee0 0a3f b90e ab3e
00000060: 6e8f 753e f87c 4a3c 9f0d 2abf 70de 5f3e
00000070: c97b 8e3e f058 04bf dfa6 58bd ffea bfbe
00000080: eabf 033e d653 783e 76e4 39bf bdd2 e0bd
00000090: 16ff 0cbe 9b8c 9e3d 97de 873e 395e 143e
000000a0: e49d d63e 2cd5 db3e 8ccf 27be dfb9 013f
000000b0: 168a ecbe 9830 e83e e1e5 823d 40e1 cd3e
000000c0: 99ed 903d c54f 71be a5c4 36be 87e1 c7bd
000000d0: dc0a f3bc 32e3 bb3d 6389 05bf 7a09 ab3c
000000e0: 2582 343e 7597 943e 6c23 d23d 4b41 1b3f
000000f0: 202c a13e fb86 3fbe 9a14 38bf 1dde 0e3c
00000100: f7a2 bc3e 57b9 883d 7aae 3a3e d7a0 4dbe
00000110: 10c3 ac3d 8c8c 423d eb0c 023d 95a2 59be
0.17799488 0.07661243 -0.27828327 -0.6397533 -0.5930859 0.0062944624 0.31564406 -0.64872956
0.14207758 -0.09736928 0.39764038 0.68043715 0.0033138902 0.60687983 -0.418039 0.24270487
-0.46670285 -0.96304864 -0.10563001 -0.097066015 0.53862333 0.43044308 0.54249275 0.3340967
0.23980495 0.012358896 -0.66427034 0.21862197 0.27828816 -0.5169821 -0.052893516 -0.37483975
0.12866178 0.24250731 -0.7261423 -0.10977695 -0.13769183 0.07741662 0.2653701 0.14489068
0.41917336 0.42936075 -0.16387767 0.5067424 -0.461991 0.45349574 0.06391502 0.40210915
0.07076568 -0.23565586 -0.17848451 -0.09759813 -0.029668264 0.091741934 -0.5216276 0.020878542
0.17627771 0.29021803 0.102606624 0.60646504 0.31478977 -0.18703835 -0.71906435 0.008719948
0.36843082 0.06675976 0.1823062 -0.20080887 0.08435643 0.047497317 0.0317506 -0.21253426

fc_7_Add_B f4 [6]
00000000: cd04 16bd 6ded a0bc 1268 9abd 2481 ed3d
00000010: 86b1 ca3d 3485 c53d
-0.036625672 -0.019644463 -0.07539381 0.11596897 0.09897141 0.09644547

fc_3_MatMul_W f4 [3, 6]
00000000: df24 c6be f0dd 493f cb43 913e cf23 0e3f
00000010: 43f7 823e 7236 a4bf 5382 c43e 27ec 8bbf
00000020: 12df a0be d166 50bf 4145 01bf be05 0ebf
00000030: ebca b33f c8c0 a2bf 1f08 a83e 353f 423f
00000040: 326b 7f3f 5d48 613f
-0.38700005 0.78854275 0.28372034 0.5552339 0.2557927 -1.2829115 0.3838068 -1.0931443
-0.3142019 -0.81406885 -0.504963 -0.5547751 1.4046301 -1.2715082 0.32818696 0.75877696
0.9977294 0.8800104

fc_3_Add_B f4 [6]
00000000: fa2b 7f3e 40ee f93d 99db be3d 9863 adbd
00000010: f63a 3d3e 06b0 593e
0.2491912 0.12203646 0.09319229 -0.084662616 0.18479523 0.21258554

fc_8_MatMul_W f4 [8, 4]
00000000: b3c2 cdbe 6fa4 093f 6453 823b 5902 f33d
00000010: 7049 c53e 2285 843f 05c6 2fbf b372 3abd
00000020: 4fae fcbe 3900 a73e 8253 1bbe d7d1 92be
00000030: e794 863d aed0 90be cc73 ac3c f9cc 5e3f
00000040: 2846 dd3c 9724 593e e33f 75be 8a95 883d
00000050: adbb f0bd 4e17 853e 0ab8 24be f08b f83e
00000060: bf8f 5dbf 4420 a8be 9595 63bf 761f 523e
00000070: d5fe 37be 0083 643f 142f a8be b84f d8be
-0.40187606 0.5376653 0.003977226 0.11865682 0.3853259 1.0353129 -0.6866153 -0.045519542
-0.49351737 0.32617357 -0.15168574 -0.2867572 0.065713696 -0.2828421 0.02105131 0.87031513
0.027010992 0.21205364 -0.23950152 0.06669147 -0.11754546 0.25994343 -0.1608583 0.48544264
-0.86547464 -0.32837117 -0.8890012 0.20519814 -0.17968304 0.8926239 -0.32848418 -0.4224832

fc_8_Add_B f4 [4]
00000000: 67e9 143e 5635 123e ff73 cbbd e550 e7bd
0.14542161 0.14278159 -0.09934234 -0.11294726

fc_13_MatMul_W f4 [8, 4]
00000000: 3528 5d3d c886 18be 3de9 8dbe 6240 433f
00000010: 64ec 2a3f e8a6 e3be 6756 2f3e 06d7 4abf
00000020: 8d9d 833e ba8d 0f3c 4889 01bf d303 49be
00000030: ea28 89bc 128d 40be 3f3e 17be ba07 91bd
00000040: f998 ef3d e666 acbe 810f 0fbf 1766 cdbe
00000050: 2294 d13e 9a8d 88bd bfce a7be b241 9fbe
00000060: 80d4 1bbd f125 483e 3f70 123f 286c 993b
00000070: 53ef 5c3e 8945 373d 1718 9e3e 3bfe e33e
0.053993423 -0.14895165 -0.2771701 0.76270115 0.66766953 -0.44463277 0.17122804 -0.7923435
0.2570614 0.008761818 -0.506001 -0.19630365 -0.016743142 -0.18803814 -0.14769839 -0.07081552
0.11699099 -0.33672255 -0.5588303 -0.4011695 0.4093333 -0.06667633 -0.32774922 -0.3110481
-0.038044453 0.19545723 0.57202524 0.0046820827 0.2157567 0.04474405 0.30877754 0.445299

fc_13_Add_B f4 [4]
00000000: 7197 cd3d 0c4b c33d 5fbb bfbd 84eb e7bd
0.10038651 0.095357984 -0.0936191 -0.11324218

fc_9_MatMul_W f4 [6, 3]
00000000: 45e0 863e 0622 a9bd e3b2 28bf d248 c73e
00000010: 1185 febe c106 1fbf 6c6d 353e 3696 a5be
00000020: dea1 b6bf 318b 833f 4c3a 2f3f 6186 183d
00000030: 4206 e0be a4c3 9bbf 1862 ca3e 5ebc cf3d
00000040: 00c7 903e 48e0 a73e
0.2634298 -0.082584426 -0.6589796 0.38922745 -0.49710897 -0.6211968 0.17717522 -0.32341164
-1.4268148 1.0276853 0.6844833 0.03723753 -0.43754774 -1.216908 0.39527965 0.1014335
0.28276825 0.327883

fc_9_Add_B f4 [3]
00000000: 2dea 8dbd 546b 1bbd 9f8c 93bd
-0.06929431 -0.037944153 -0.07204556

fc_14_MatMul_W f4 [6, 3]
00000000: d835 fd3e a01b f0be 1cb3 b3be ed27 91be
00000010: cbdb ad3e e27a 5c3f f805 183f df10 68bf
00000020: 992c 31bd f348 c6be 95ba 393f c935 213e
00000030: 516c f1be fc50 273c 9f2f b1bf 7064 073d
00000040: d23e 493a 2dbb 973d
0.49455142 -0.46896076 -0.35097587 -0.28350773 0.3395675 0.86125004 0.5938411 -0.90650743
-0.043255422 -0.3872753 0.72550327 0.15743174 -0.4715295 0.010212179 -1.3842658 0.03305477
0.00076769025 0.07408748

fc_14_Add_B f4 [3]
00000000: 2d5c b4bd 068c 98bd 569d 6abd
-0.08806644 -0.07448582 -0.057278953

fc_11_MatMul_W f4 [4, 2]
00000000: 65f7 ed3e 5e17 ce3e b732 9e3f 9600 213f
00000010: 8d78 e8be cac8 35be b7e6 c9be c0a5 54bd
0.4647781 0.40252203 1.2359227 0.6289152 -0.45404473 -0.17752376 -0.39433834 -0.051915884

fc_11_Add_B f4 [2]
00000000: 02d9 86bd 7360 c73d
-0.0658436 0.09735193

fc_12_MatMul_W f4 [3, 2]
00000000: a7d9 a3bf c68a 00bf 064d 03bf d672 a8be
00000010: 5cd0 6dbf 80c3 92bd
-1.2800797 -0.5021175 -0.51289403 -0.32900113 -0.92896056 -0.07166195

fc_12_Add_B f4 [2]
00000000: 02d9 86bd 7360 c73d
-0.0658436 0.09735193

fc_10_MatMul_W f4 [2, 1]
00000000: 30d6 9a3e d6f6 6fbf
0.30241537 -0.93736017
